Warzone_nn_model3.pth (torch, 1935 bytes, 1 tensors)

0.weight f4 [1, 6, 3, 3]
000000 88 71 d7 3d 3b 49 4d 3e 07 4f 87 3d eb 49 83 3e
       0.10519701 0.20047466 0.0660687 0.25642332
000010 40 24 32 3e 2e b2 65 3e 54 77 64 3e b9 1d 1f 3d
       0.17396641 0.22431251 0.22311145 0.038846705
000020 01 2b 4e 3e d8 64 50 be 88 4e b3 bd 5f f4 82 3d
       0.20133592 -0.20350969 -0.08755213 0.06394266
000030 60 fb f4 bd 68 c5 c7 bd 66 7e 86 bd ee 8e 03 3e
       -0.119620085 -0.09754449 -0.06567077 0.12847492
000040 68 bf e0 3d e0 6f 6d 3d d8 00 fc 3d 35 47 0b be
       0.10974008 0.05796802 0.123048484 -0.13601382
000050 f0 63 a9 bc df 14 18 be 5e 13 35 be fd 25 69 be
       -0.020677537 -0.14851712 -0.17683169 -0.22768398
000060 17 f9 e3 3c e3 01 e5 bd 4b 00 06 3e ec 67 8a bd
       0.027828736 -0.111820005 0.1308605 -0.06758103
000070 8a e3 c2 3d 54 36 ff bc 62 21 8d 3d 34 32 c7 bd
       0.09516056 -0.031153835 0.06891133 -0.09726372
000080 b2 d7 91 3d 0a c5 de bd 00 22 0b bd 5c 35 d5 bd
       0.07121219 -0.10877426 -0.03396797 -0.10410568
000090 3d 81 d1 be 08 0d ab be 12 44 7c be 00 dc cd be
       -0.40918913 -0.3340838 -0.24635342 -0.4020691
0000a0 18 20 de be f2 37 24 bd a8 35 62 be d6 b3 4a be
       -0.4338386 -0.040092416 -0.2209078 -0.19795164
0000b0 49 90 02 bd a8 db a7 be bd ec 89 be da 68 9b be
       -0.031875882 -0.32784772 -0.2693843 -0.30353433
0000c0 7a 6f 66 be 37 71 94 be b5 f9 4a 3d 57 87 8a be
       -0.22503462 -0.28992626 0.049554545 -0.2705638
0000d0 45 40 c8 be e2 08 7e bd
       -0.39111534 -0.06202019
