Warzone_nn_model4.pth (torch, 1935 bytes, 2 tensors)

0.weight f4 [1, 6, 3, 3]
000000 55 e5 cb 3d f7 f4 85 3d 02 fc 89 bc bd 7a 81 bd
       0.09955851 0.06540864 -0.0168438 -0.063222386
000010 e5 8e bf bd 32 11 8b bc d5 54 b4 3d 25 df 9a bd
       -0.09353427 -0.016975973 0.08805243 -0.07562093
000020 6b a0 67 bd e0 45 dd 3c d3 95 50 bd eb 60 52 3c
       -0.05654947 0.027010858 -0.050924134 0.01284049
000030 42 f0 91 be 53 ba b1 bd 3c 11 40 be d9 7c a4 3c
       -0.28503615 -0.08678117 -0.18756574 0.020079063
000040 ed d9 90 3d 3d ce 43 bd 26 fe c6 be e0 a8 96 3c
       0.07072816 -0.047804106 -0.38865775 0.018391073
000050 d8 2a 15 3e 11 6d 60 be df 19 0c 3d 9d d4 78 be
       0.14567125 -0.21916606 0.03420436 -0.24299856
000060 23 e8 72 3d c3 60 05 be 08 58 08 3a 3b b6 ce 3d
       0.059303414 -0.13025193 0.0005201106 0.100933515
000070 cb 68 9a bc 60 ef a2 bd 13 73 03 be 12 6f ec bd
       -0.018848797 -0.079558134 -0.12836866 -0.115446225
000080 fe 94 f2 3c b4 eb 34 3e c7 0e 6f bd bb ac 07 be
       0.02961206 0.17668039 -0.058363702 -0.13249485
000090 b3 4d d0 be 7c 1d 30 bd 5f 8d ad be c3 28 ce bd
       -0.4068428 -0.04299687 -0.3389692 -0.100663684
0000a0 b1 1e 5f be d9 88 50 be 69 29 08 be 5a 9d 14 bb
       -0.21789052 -0.20364703 -0.13297047 -0.0022676797
0000b0 f5 73 cb bd 9e bf 0d bf b0 e2 6b 3d a3 f9 ea be
       -0.099342264 -0.5537051 0.057589233 -0.45893583
0000c0 43 70 29 3e 07 3e ae be 22 67 88 3e 19 bb ea be
       0.1654673 -0.34031698 0.26641184 -0.4584587
0000d0 7c d1 c4 bd 9a 30 e2 be
       -0.096102685 -0.44177705

2.weight f4 [1, 4]
000000 8f 9f ed 3e 24 65 a5 3e 0e a5 e5 3e c9 a1 94 3e
       0.46410796 0.32303727 0.4485249 0.29029682
