Warzone_nn_model5.pth (torch, 1935 bytes, 2 tensors)

0.weight f4 [1, 6, 3, 3]
00000000: 8590 a53d 41e1 c23d f986 ddbc dcac c23c
00000010: f3e1 1e3e 4ab6 ecbd 00ff f63d f23e d2bd
00000020: 3930 4fbe 4b8b 9f3e 87c1 5bbd d765 01be
00000030: 7510 b73d c880 3fbe 63be 05be 00f1 ebbe
00000040: 5cc8 693e e009 37be dbc5 bebe f2bc c4bc
00000050: 9729 27bd 8ff5 0ebe 5a6c 98bd fee9 0fbe
00000060: c5ad 233e 3b34 d43d 57d8 ca3e 61e0 b93c
00000070: 254f 393c 3983 023e 0ea5 a5bd 4ed6 f1bd
00000080: 4b4f abbd 216b 2dbd 899e f93a 6f47 21bd
00000090: 0f42 43be ed81 51be b91b a8be 5576 bbbe
000000a0: f46f e3bd a269 cb3c acb0 64be 3698 95bd
000000b0: 6417 bf3e f1c5 6ebe fdd4 6bbe 46a0 92be
000000c0: 839f c3be ea91 b0bd 8da4 033e 7fd8 75be
000000d0: f930 863d d237 103f
0.080842055 0.0951562 -0.027041899 0.023764066 0.1551588 -0.115582064 0.12060356 -0.10265912
-0.20233239 0.3116096 -0.05365136 -0.12636505 0.08938686 -0.1870147 -0.13060908 -0.46082306
0.22830337 -0.17874861 -0.37260327 -0.024015877 -0.040811148 -0.1396086 -0.074425414 -0.14054105
0.15984257 0.10361525 0.3961818 0.02269 0.011310373 0.1274537 -0.08088122 -0.118084535
-0.08364733 -0.042338494 0.001904444 -0.039374765 -0.19068168 -0.20459719 -0.3283365 -0.36613718
-0.11105338 0.024830643 -0.2233302 -0.073044226 0.37322533 -0.23317696 -0.23030467 -0.28637904
-0.38207635 -0.08621581 0.1285574 -0.24008368 0.065523095 0.56335175

2.weight f4 [1, 9]
00000000: db2f b73e 8765 5d3d 00bf b63e 5a9c 113e
00000010: 62d7 033e 36a5 6f3d 8954 a03e b192 ce3d
00000020: 6520 1a3f
0.35778698 0.054051902 0.35692596 0.142198 0.12875131 0.058507167 0.31314495 0.10086573
0.6020568
