Warzone_nn_model7.pth (torch, 2303 bytes, 1 tensors)

0.weight f4 [1, 6, 7, 7]
00000000: 9e7c e83c eb36 1b3d 65e0 e3bb 7a85 313d
00000010: 54fc 7cbc 0950 47bd b9cd 333d a62e 9cbc
00000020: 15c9 e03c d67b 123d 8f35 99bb a187 c0bc
00000030: 6493 383d 663c 38bd ab34 d9bc e8b7 cabc
00000040: 0190 0f3d 3127 023d ecfa a83a 5270 263d
00000050: e9d3 f4bb ad31 a63c 9e75 63bb bda2 fa3c
00000060: 6fd9 1c3d 43ed 1e3d bd83 833c a5ca e2bd
00000070: e6c9 edbc 9e69 39bc 50dc 523d bb76 2b3c
00000080: 2367 223d 2262 e23a fc4d 14be e475 e93c
00000090: cd43 b23c 4927 643d d7be 3e3d 2c50 a33c
000000a0: 1159 6d3d 924f 25be 16ca d2bb 8f0d a0bc
000000b0: fa2d a3bc 1903 0bbc 38af 8bbd 2879 12be
000000c0: db5d c1be 3d44 06bd 5c3d 3d3d cb15 8abd
000000d0: 7f7f 193c de28 1bbd 8f99 06bd 35a3 923c
000000e0: 1e00 f0bd 2a10 06bd bf84 f23d 0d85 93bc
000000f0: d371 ea3b 5088 0d3d f900 bdbd 52f6 22be
00000100: abff 4e3c ce9b 233c a1e1 a8bd 6144 e43d
00000110: 9107 403d aaff 01bd 65b0 2ebe d7a4 1abd
00000120: 3723 09bd 7393 923d 318a 113d 4bd2 033d
00000130: c0a4 043e 1bcc f239 bffc 2bbe 30bf c8bb
00000140: 567d 8ebd e74c 343d 6740 12be 9e90 dbbd
00000150: 49a3 acbd 4e3f 32be 058c 4dbd 644c 29bd
00000160: 0962 33be 69b9 89bd ada2 f1bd 8cd9 05bd
00000170: f633 07bd 225b 653d 5086 f53b c0b5 563b
00000180: 6051 ad3c e0f7 4e3d 756c 6cbd b8f1 ac3c
00000190: aa10 24bd 3078 a83c d0e0 76bb c0df 153a
000001a0: 58c9 68bc 6fb5 4b3b 582c 923d 354f 6dbd
000001b0: f8af afbd 7811 89be 377d 7b3d 27a8 17be
000001c0: a4b1 633d 1b40 413d 4a12 fa3d 33f0 973d
000001d0: a1aa cc3d bf9b 9a3d c6e3 723e d5bd 8cbd
000001e0: 0e56 0ebd 8708 053e 78ae babc 36fb f63d
000001f0: 469b d43c 4635 0a3e 47ef 033e e833 aebc
00000200: ec94 0fbc 60f2 bbbb 30d8 8cbd 2861 e33c
00000210: 75ee f13c a4cc b13e ac66 1cbd 3c42 893d
00000220: 513f bbbd e87e e3bd a89b 5fbd 614d 6c3c
00000230: 9476 713e 56a9 263e a3cd 8abd 4004 323c
00000240: cfeb 093e 3510 643d 38a6 cf3d 7827 edbb
00000250: c0ee 6dbd 2cb5 ee3c ba63 adbc 9076 d43b
00000260: 50bc a63c 5496 013d fa7c 2c3d 16e5 153d
00000270: 4ca5 8bbc 1a9b 5e3d 9a6a 683d 19cf 60bd
00000280: 7e38 443d 5c16 2abc 6571 4f3b d84a 92bc
00000290: 68b5 773c 20f2 33bb ef55 57bb 4c1c 2f3d
000002a0: f44c 9d3c 9fb9 dfbc 8680 8abd 07d2 0fbd
000002b0: aff6 10bd cbbd 16ba 4c6f ab3c 8c6e f83c
000002c0: 9bcc 5abc f45f c83c 40ed 4d3d 707e 0cbc
000002d0: 1c7e 48bd a65b bebc f47b b83c 3843 cf3c
000002e0: af65 63bd 0ab6 3f3d 84bb babc 28b1 15bc
000002f0: 00db 773a 50e5 ec3b 90c6 cfbb 605a 10bd
00000300: c294 52bd 82de 43bd 121b cdbc ac8e aebc
00000310: c638 c1bd daff 9ebd 87c1 13be b61a a1bd
00000320: 55f0 09be a311 3fbe 31a1 a5bd 9b47 20be
00000330: 3441 febd 17e5 acbd 7855 09be 4cfb 3abe
00000340: a0f5 aebd 67a4 1abe 3b45 2fbe 8456 2ebe
00000350: 81c2 e1bd 4846 f5bd 181a 1ebe 3887 d4bd
00000360: e056 a2bd 9798 e0bd 80ed 0bbe 2570 07be
00000370: 14fa 00be 0b6b 0ebe 91ec 05be 34cc b9bd
00000380: aa7b 2cbe 004e 05be c386 dabd 3bb8 22be
00000390: a92d 21be 9bbe 1dbe 37b4 70bc f660 e6bd
000003a0: 3764 d2bd 6a9a c7bd f8a3 c6bd b344 08be
000003b0: edd1 c9bd 27e4 f9bc d618 c4bd 8431 f2bd
000003c0: 5c4c dfbd 796b 15bd c24f 85bc 9b8c a43d
000003d0: 5d10 5d3e 2519 77bd b511 8abd dda8 ddbd
000003e0: b332 edbd f32b 36be 0ee1 36be ae18 60be
000003f0: 6a4c 2cbe 52c7 82bd c546 b3bd 6b0f 46be
0.028379735 0.03789417 -0.00695424 0.043340184 -0.015441019 -0.04866031 0.043897364 -0.019065212
0.027439633 0.03576263 -0.004675574 -0.023502173 0.045062438 -0.044979475 -0.026514372 -0.024745896
0.035049442 0.031775657 0.0012892163 0.04063446 -0.0074715507 0.02028736 -0.0034707556 0.030595178
0.0382933 0.03880049 0.016054029 -0.110738076 -0.029026937 -0.011316685 0.051479638 0.010465319
0.03964914 0.0017271677 -0.14482874 0.028498597 0.021760846 0.055701528 0.046568718 0.01993569
0.05794627 -0.16143635 -0.006432782 -0.019537715 -0.019919384 -0.008484625 -0.0682053 -0.1430403
-0.3776692 -0.03277992 0.046201095 -0.06742438 0.009368776 -0.03788077 -0.03286129 0.017900089
-0.11718772 -0.03273026 0.118417256 -0.01800778 0.007154682 0.034553826 -0.09228701 -0.15914276
0.012634198 0.009985877 -0.0824616 0.11145855 0.046882216 -0.03173796 -0.17059477 -0.03775486
-0.03348085 0.0715703 0.03553218 0.032182973 0.12953472 0.00046309907 -0.16795634 -0.006126307
-0.069575 0.044018652 -0.1428238 -0.10720943 -0.08429582 -0.17406961 -0.05018236 -0.041332617
-0.17517866 -0.06724817 -0.11798606 -0.032678172 -0.03300854 0.055995114 0.007492818 0.003276214
0.021156967 0.05052936 -0.05772062 0.021111354 -0.040054955 0.020565122 -0.003767062 0.000571724
-0.01420816 0.0031083485 0.07137364 -0.057936866 -0.08578485 -0.2677114 0.06139871 -0.14810239
0.055589333 0.047180276 0.122105196 0.07418861 0.099934824 0.075492375 0.23719701 -0.06872145
-0.034750037 0.12991534 -0.022788271 0.120596334 0.025952946 0.13496885 0.12884246 -0.021264985
-0.008763533 -0.0057356805 -0.06877172 0.027756289 0.02953265 0.3472644 -0.038183853 0.06702086
-0.09142936 -0.1110819 -0.054591805 0.014422745 0.2358039 0.16275534 -0.06777503 0.010865271
0.1346886 0.05567952 0.101391256 -0.007237371 -0.058089018 0.029139124 -0.021165717 0.0064838603
0.020353466 0.031637505 0.042111374 0.036595426 -0.017046593 0.054347135 0.05674229 -0.054885004
0.047905438 -0.010381307 0.0031653282 -0.017857954 0.015118934 -0.002745755 -0.0032857617 0.042751595
0.019201733 -0.02731019 -0.06762795 -0.035112407 -0.035391506 -0.0005750327 0.020927094 0.03032615
-0.013354446 0.024459817 0.050275087 -0.008575067 -0.048948392 -0.02323706 0.022520043 0.025300607
-0.055516895 0.046804465 -0.022794493 -0.009136476 0.0009454936 0.0072294846 -0.006340809 -0.03524244
-0.051411398 -0.04781962 -0.025037322 -0.021308266 -0.09434657 -0.077636436 -0.14429294 -0.07866423
-0.13470586 -0.18659072 -0.080873854 -0.15652315 -0.1241478 -0.08442133 -0.1341151 -0.18259925
-0.08542943 -0.15101777 -0.17116253 -0.1702519 -0.11023427 -0.11976296 -0.15439641 -0.103773534
-0.07926726 -0.10966604 -0.13664818 -0.13226373 -0.12595397 -0.13908021 -0.13078524 -0.09072152
-0.16844049 -0.13018036 -0.10670235 -0.15890591 -0.15740074 -0.15404741 -0.014691404 -0.112489626
-0.10273021 -0.09746249 -0.09699243 -0.13307457 -0.09854493 -0.0305043 -0.095750496 -0.118258506
-0.10903236 -0.036479447 -0.016273383 0.08034631 0.21588273 -0.060326714 -0.067416586 -0.10823224
-0.11581936 -0.17790203 -0.17859289 -0.21884415 -0.16826025 -0.063856736 -0.087537326 -0.19341819
