Warzone_nn_model6.pth (torch, 1999 bytes, 2 tensors)

0.weight f4 [1, 6, 3, 3]
00000000: 2dcc 2bbd 6d12 833d 13c2 ddbd 4ce3 20b8
00000010: 0f5e 8a3d dbc5 92bd 0447 4cbd d1a5 32bc
00000020: f9e8 983e 1c4e e5bd 5a5f e9bc 8f56 24be
00000030: ae4c 3d3f c483 f4be 5d49 84bd edd8 2bbf
00000040: 6bbd 3e3f 6227 953e d47c 8ebd 592e c3bd
00000050: 4cd4 1a3d bd4d 283c 2669 cd3e 6a59 ca3c
00000060: bfea afbd d96e 653c bde4 e9bd 64e4 24bd
00000070: 7496 893c a7f4 0ebe 9870 efbe 3ab9 053e
00000080: 5ce1 773d 3376 363f 5bb6 e23c b850 4a3e
00000090: 2953 973d 5c6c 5b3e 0348 803c 77fa 503d
000000a0: e706 c83d 3c10 1f3e efcf 4a3e b14e 653e
000000b0: 91c0 ecbe bbc5 0c3e 430b 933e 596d 48bd
000000c0: 432e b53d 4dd2 4a3e b69e f63c b736 543e
000000d0: 2d4f 0c3e a7be 05bf
-0.041942764 0.06399999 -0.10828032 -3.835866e-05 0.067562215 -0.07166644 -0.049872413 -0.0109037915
0.29865244 -0.11196539 -0.02848785 -0.16048644 0.7394513 -0.4775678 -0.064593054 -0.6712788
0.7450778 0.2913161 -0.06957403 -0.095303245 0.03780012 0.0102724405 0.40119284 0.02470084
-0.08589696 0.014003479 -0.114205815 -0.040256873 0.016795374 -0.13960515 -0.4676559 0.1305894
0.060517654 0.7127411 0.027674844 0.19757354 0.073889084 0.21428055 0.015659338 0.051020112
0.097669415 0.15533537 0.19805883 0.223933 -0.46240667 0.13747303 0.2871953 -0.048932407
0.08846714 0.19806786 0.030104976 0.20723997 0.13702078 -0.5224404

2.weight f4 [1, 16]
00000000: c113 3cbe cb1d 56be e233 29be 3cce 97be
00000010: 094e 66be f584 a9be 0aad 67be 54f9 c3be
00000020: 6a1a 0ebe 8621 93be ed8f 72be bb89 fbbe
00000030: 3299 7abe 9d70 d6be cd54 13bf 801a 3bbf
-0.1836691 -0.20909803 -0.16523698 -0.29649532 -0.22490706 -0.3310925 -0.22624603 -0.3827616
-0.13877264 -0.28736514 -0.23687716 -0.49128518 -0.24472502 -0.41882792 -0.5755127 -0.7308731
